models/actor_critic_1.pkl (torch, 6250 bytes, 13 tensors)

obs_hidden.0.0.weight f4 [6, 9]
00000000: 0177 9dbe 6259 9ebe d04a 01bd 982a 763e
00000010: e5bd ec3c 99e4 403e cd35 9d3e d2c8 36be
00000020: b835 66be 2093 4abd 7a3f 023e e89a 813e
00000030: e5b2 26be 3e12 25be 9da9 7cbe 320b 02bd
00000040: 48a6 203e b8c1 9bbe e33a 74be fcd3 80bd
00000050: 4007 ba3c 2065 6b3d 760b 71be 9644 0bbe
00000060: 9363 1abe da2f 213e 3789 8c3e 5367 39be
00000070: 6482 96be 808f 43be 2049 21bc f6bc 2f3e
00000080: 607a 13bc 5690 8dbe 5adb 4d3e 7a32 283e
00000090: 5cfb c4bd fc10 81bd 5005 a1be 88ce 7dbd
000000a0: ec96 e8bd 3c93 fcbd 10b6 e13c d0d6 ccbd
000000b0: 46ab 08be 306e e5bc b033 d9bd a4fc 8bbd
000000c0: c6a4 dcbd e4d4 a4bd 78d6 64be 5a6f aabe
000000d0: 20a7 4b3d e685 17be
-0.30754855 -0.3092757 -0.031565487 0.24039686 0.028899143 0.18837203 0.3070511 -0.17850044
-0.2248143 -0.049456716 0.12719527 0.25313497 -0.1627918 -0.1612024 -0.24674077 -0.031748958
0.15688431 -0.30421233 -0.23850589 -0.06290433 0.022708535 0.057469487 -0.23539528 -0.13600382
-0.15077047 0.1574091 0.27448437 -0.18105821 -0.29396355 -0.1909771 -0.0098440945 0.17161927
-0.009001344 -0.27649182 0.20103207 0.16425505 -0.096182555 -0.06302068 -0.31449366 -0.06196454
-0.11356911 -0.1233277 0.027552634 -0.1000191 -0.13346586 -0.028006643 -0.10605562 -0.06835297
-0.107736155 -0.08048418 -0.22347438 -0.3328808 0.04971993 -0.14797172

obs_hidden.0.0.bias f4 [6]
00000000: f513 82bd faa8 2b3e 1636 37be e3ba 1dbe
00000010: f001 abbc ce8c 7d3e
-0.06351463 0.16763678 -0.17891726 -0.15403323 -0.020874947 0.24760744

obs_hidden.1.0.weight f4 [7, 6]
00000000: c50f 143e 251a 8f3e c86c 9b3e 2035 a43c
00000010: 92df a93e 0816 653e 7031 16bd 5a83 c1be
00000020: 1811 34bd 48fd 51bd 7671 4fbe fced 473e
00000030: f743 a4be eb72 423e 28cc 0bbe 367f b1be
00000040: 9099 ed3d fbb9 7cbe 205a cb3d 12d3 2fbe
00000050: 36cf 09be 80a3 ab3e 80e3 943e 465e 97be
00000060: 6280 333d df22 95be 0847 853e 90f9 973e
00000070: 8a39 c1be 1830 febd d499 49be 9e3f bd3e
00000080: 91cc c1be 48bc 713d 751a 49be 6a9e 4dbe
00000090: 286d 0e3d b63c 33be 04b8 b8bd 40ee 2dbd
000000a0: fc25 79be 174a b7be
0.1445914 0.27949634 0.3035643 0.020044863 0.33178383 0.22371686 -0.03666824 -0.37795526
-0.043961614 -0.05126694 -0.20258126 0.19524378 -0.32083103 0.1898915 -0.13652098 -0.34667367
0.11601555 -0.24680321 0.09929299 -0.1717036 -0.13457951 0.33523178 0.2907982 -0.29564112
0.043823607 -0.29128167 0.26030755 0.2968259 -0.3773921 -0.12411517 -0.19687587 0.369626
-0.37851384 0.05901745 -0.19638999 -0.20079961 0.03477207 -0.17503628 -0.09019473 -0.04246354
-0.24330896 -0.35798714

obs_hidden.1.0.bias f4 [7]
00000000: 03da 113e 88b5 68be be4c 12bd a6fc 593e
00000010: 53fa e5bd 9d01 8abe 18ef 9dbe
0.14243321 -0.22725499 -0.03571772 0.21287784 -0.11229386 -0.26954356 -0.30846477

central_hidden.0.0.weight f4 [6, 8]
00000000: 9c36 12bd 3910 603e 42e6 83be 3645 06be
00000010: 2441 1e3e c546 733e 4894 30be 1d35 543e
00000020: e2d7 a8be 3a6b 68bc b724 52be 90e1 733e
00000030: 6a67 0f3e d7be 743e 188d 91bd 62aa 513c
00000040: 383f c63d 7fac 16be 7ed2 3b3e 5644 67be
00000050: 5f18 b4be 7f8d 9fbe 3e07 4bbe 6c6a cf3d
00000060: d976 0d3e 956a 71be e86f f1bd d2e8 92bd
00000070: 9cf7 8b3e 9be1 853e 4939 993d 6dd7 6b3d
00000080: ce00 623e 3103 72be 94d2 aabe c578 b0be
00000090: 47bb 22be c199 873e 60c3 dd3d dffa adbd
000000a0: f69a 9dbe ef31 6a3e d48d 86be 4a42 3ebe
000000b0: fa1c 833e b17e 21be 7fad 553e c74e 633e
-0.03569661 0.21881188 -0.2576161 -0.1311234 0.15454537 0.23757465 -0.17244065 0.20723386
-0.32977206 -0.014185721 -0.20521818 0.23816514 0.14004293 0.23900925 -0.071069896 0.01279697
0.09680027 -0.1471424 0.18342015 -0.22584662 -0.35174844 -0.3116264 -0.19826981 0.1012772
0.13814868 -0.23575814 -0.117889225 -0.07173313 0.27337348 0.26148686 0.074816294 0.057578493
0.2207062 -0.2363403 -0.33363783 -0.3446714 -0.15891753 0.26484492 0.108282804 -0.084951155
-0.30782288 0.2287061 -0.2628008 -0.18579975 0.25608045 -0.15770985 0.20866965 0.2219802

central_hidden.0.0.bias f4 [6]
00000000: 64ff 2a3d 7e81 3c3c 0cce 91bd 2305 8fbd
00000010: cc01 923e d1c7 183e
0.041747466 0.011505483 -0.071193784 -0.069834016 0.28516996 0.14919974

central_hidden.1.0.weight f4 [7, 6]
00000000: 4345 0cbe 8e6c 8f3e 8087 b4bd dd3c 8f3e
00000010: d554 a5be 8f73 ccbe 5210 b1bd 784f f5bb
00000020: b72d 27be 3631 5d3e 1cb8 4bbc 4312 ea3c
00000030: 08d0 413e 653e 663d 88ba cdbd e625 583d
00000040: 94a5 95be e547 03be 22f0 98be 3716 56be
00000050: 30f9 2f3e 1e27 3dbe 38db c23e a2c2 923e
00000060: 8cd2 4bbe d119 39be 80ef c03b e0f7 babe
00000070: 5d80 66be a0a6 5abd 8e60 9a3e ae93 ce3e
00000080: 61d4 51be 7ddd c03e 5243 a33e 5312 75be
00000090: 8dfd 0d3e c463 ae3e f8e6 51bd 7836 503e
000000a0: f96b 083e dc6e 693d
-0.13698296 0.28012508 -0.08814907 0.27976122 -0.32291284 -0.39931914 -0.08645691 -0.00748628
-0.16326033 0.21600804 -0.012434032 0.028573161 0.18927014 0.056211848 -0.10045344 0.052770518
-0.2922789 -0.12820394 -0.29870707 -0.20906912 0.17184901 -0.18471953 0.38057876 0.28664118
-0.19904536 -0.18076254 0.0058879256 -0.3651724 -0.22509904 -0.053381562 0.3015179 0.40347046
-0.20491172 0.37668982 0.318873 -0.23932771 0.13866253 0.3406049 -0.05124566 0.20333278
0.13322438 0.05699049

central_hidden.1.0.bias f4 [7]
00000000: 3677 21be 9c1a b03e 981b 7ebe 9ff8 b43e
00000010: 72ae abbe 5fc1 723e ec3e ac3e
-0.15768132 0.343953 -0.24815214 0.35345933 -0.3353153 0.23706578 0.33641756

value.weight f4 [1, 7]
00000000: a006 e13d b088 3e3e 48b1 973d 0aed 90be
00000010: 26d0 663e 41f1 8d3d f37e a0be
0.10987592 0.1860683 0.074068606 -0.28305846 0.2254034 0.06930781 -0.31346855

policy.0.weight f4 [5, 7]
00000000: 8aca 713b f6d6 333e e404 63be 1ba4 97be
00000010: 9242 8d3e 68ae 973e 583b 723d a6bc bd3e
00000020: 28b4 7ebd 7f18 1abc e519 343d a90e a1bd
00000030: 7ae6 c63d a530 ab3e f235 a73e ac85 963d
00000040: c250 babe c5a3 3fbe f1c5 acbe 76a1 ab3c
00000050: 7898 89be 4ed0 013e f17c 69be ecd2 153e
00000060: b43f 8ebd 6df4 903e 59dd a83e 1814 98be
00000070: 3f32 89be 52f7 76be 6b64 933e cc26 93be
00000080: a0ec 4b3e 53ff f53d 1808 913d
0.0036894404 0.1756247 -0.22169834 -0.2961739 0.27589852 0.2962525 0.059138626 0.3705799
-0.06218353 -0.009405254 0.043970007 -0.07864124 0.09711929 0.3343555 0.32658345 0.07349715
-0.36389738 -0.18714817 -0.33744767 0.020951014 -0.26874137 0.12677118 -0.22801568 0.14631242
-0.06945744 0.28311482 0.32981375 -0.2970283 -0.26796147 -0.24117783 0.2878755 -0.28740537
0.19914484 0.1201159 0.07081622

policy.0.bias f4 [5]
00000000: 89c7 b13e 15a9 003d 56d8 873d ea45 393e
00000010: fa0d d2bc
0.34722546 0.03141125 0.0663306 0.18093076 -0.02564143

comm_fn.0.weight f4 [3, 6]
00000000: ce75 7c3e ed95 9fbe d2bb 983e ec22 f93d
00000010: f119 9d3e 14e0 33bd 7f99 603e ad86 dfbd
00000020: 07e1 af3e b106 1f3e da5c bdbe e674 543e
00000030: 0ff1 0dbe 5fc8 cdbe 7072 3ebe 246a 1abd
00000040: 7552 aa3e b01a c33d
0.24654314 -0.31169072 0.29830796 0.12164864 0.30683854 -0.04391487 0.21933554 -0.10914359
0.3435137 0.15529896 -0.36984903 0.20747718 -0.13861488 -0.40191934 -0.18598342 -0.03769888
0.33266035 0.095265746

comm_fn.0.bias f4 [3]
00000000: 6432 813e e771 a6be 7679 1bbe
0.25233757 -0.32508776 -0.15183052
