models/actor_critic_1.pkl (torch, 48690 bytes, 15 tensors)

obs_hidden.0.0.weight f4 [80, 26]
-0.15118018 -0.1847354 -0.050509453 0.0955649 0.03862874 0.15619011 0.18172076 -0.121145554
-0.1749423 0.026369737 0.08769426 0.17821099 -0.2686548 -0.07015581 -0.09552595 0.013688577
0.12751709 -0.20922679 -0.2618698 -0.006706615 -0.010527615 0.036402956 -0.11729363 -0.05894445
-0.117880404 0.10669533 0.08983732 -0.15907195 -0.23650952 -0.16012111 -0.005630376 0.031135408
-0.11241548 -0.2217451 0.07259886 0.12471381 -0.110650405 0.026957009 -0.13811459 -0.009645192
-0.10274308 -0.060676336 0.07890171 -0.13830398 -0.10291021 0.05972344 0.019241495 -0.110651426
-0.0069060833 0.009942182 -0.21197517 -0.11861295 -0.003201456 -0.18175639 -0.11353377 0.027404612
-0.111525506 -0.13915594 -0.03234481 0.09749081 -0.039846808 0.1304433 -0.15211944 -0.05691635
0.069499426 0.14102547 -0.13320048 0.095000476 -0.12295575 -0.06076464 -0.10856015 0.12796196
0.1363916 0.10814934 0.01948844 0.0480535 0.0009555357 -0.07080735 0.052418005 -0.18110524
-0.2144259 -0.2137566 -0.16054367 0.0051696263 0.026984708 -0.17157108 -0.050523233 0.011952824
0.098837666 0.19427538 0.08723918 0.08124001 0.0769879 -0.11938467 -0.13588157 -0.24184951
-0.119524844 0.1888981 0.10640196 -0.09708317 -0.111371614 0.18611433 -0.18738888 -0.053992428
0.073755525 0.040997487 0.08205489 0.12926668 0.09796421 0.11841158 -0.019345345 -0.01034164
0.17153391 0.052230675 0.07460408 0.15465526 0.0523001 0.018235162 0.21997131 0.13360667
-0.040874593 -0.15049677 -0.08887938 -0.04530687 -0.10764706 0.18937796 -0.13737832 0.06056969
-0.03930316 -0.22405459 -0.022466188 -0.1206919 -0.018271295 -0.10576009 -0.14598222 0.106077924
0.047036875 -0.22872397 -0.024472242 -0.18067765 0.0409267 0.21643351 -0.10989067 0.013073775
-0.11469571 0.2672696 -0.08665331 -0.047526475 -0.016153576 -0.034332275 0.094924815 -0.14755104
0.022832103 0.05246546 -0.19243604 -0.09959315 0.0056500854 -0.24188705 -0.019975368 0.06746607
-0.11142684 -0.16930377 -0.2040138 -0.12842572 0.11318672 0.05496573 0.063794985 -0.06601376
-0.24641906 0.0071310126 0.050759517 0.010952196 0.15704882 -0.05165831 -0.03393541 0.12363314
0.058609366 -0.03278333 0.04747423 -0.12207908 -0.11006718 -0.091605626 -0.2164419 0.011189229
-0.116406396 0.0978094 0.043876033 -0.12426171 -0.16459174 -0.09936005 -0.27210492 -0.053358555
-0.10421842 0.20406763 0.08164464 -0.004994631 0.23406748 0.18649912 -0.06152965 -0.028283402
0.11000061 0.019654863 0.21340261 -0.04075116 0.13376617 0.0035419678 0.060824506 0.040282156
0.05346468 -0.25548688 0.026932767 0.052815318 -0.106838845 -0.07743509 -0.099198915 -0.27772763
0.0829467 0.14547597 -0.22249511 0.19894126 -0.052991852 0.13952646 -0.1365388 -0.047782417
0.28351417 0.047714032 0.027581977 0.23663859 0.07346956 -0.112811156 0.13689622 0.075965784
-0.0722946 0.31185073 0.09933499 -0.047138367 -0.22948168 -0.15834627 -0.2037635 -0.054040883
-0.23117125 0.0108143855 -0.09074929 0.12393069 -0.106894635 0.21643852 0.1910628 -0.10135558
-0.19662249 -0.08106408 0.2155349 -0.23021588 0.08984036 0.15613557 0.10322891 0.1049469
00000000: face 1abe 472b 3dbe 00e3 4ebd 88b7 c33d
00000010: 2b39 1e3d 4df0 1f3e 0215 3a3e 291b f8bd
00000020: 1324 33be 5905 d83c 0c99 b33d f17c 363e
00000030: 1f8d 89be d9ad 8fbd 1ca3 c3bd 0e46 603c
00000040: d793 023e 8c3f 56be cc13 86be 2ac3 dbbb
00000050: 057c 2cbc 441b 153d a537 f0bd bc6f 71bd
00000060: 486b f1bd 1583 da3d a1fc b73d c2e3 22be
00000070: 8d2f 72be caf6 23be 047f b8bb af0f ff3c
00000080: 163a e6bd 2611 63be b6ae 943d f469 ff3d
00000090: ae9c e2bd f2d4 dc3c e96d 0dbe de06 1ebc
000000a0: f76a d2bd c087 78bd 3897 a13d 8f9f 0dbe
000000b0: 97c2 d2bd 91a0 743d 57a0 9d3c 379d e2bd
000000c0: 6d4c e2bb 89e4 223c 0510 59be 59eb f2bd
000000d0: 85cf 51bb 591e 3abe 6584 e8bd a37f e03c
000000e0: 7c67 e4bd e57e 0ebe fe7b 04bd 43a9 c73d
000000f0: 6836 23bd ee92 053e 33c5 1bbe 1e21 69bd
00000100: b755 8e3d fb68 103e b565 08be 9c8f c23d
00000110: 39d0 fbbd 58e4 78bd c954 debd 7608 033e
00000120: 3daa 0b3e 677d dd3d 39a6 9f3c bfd3 443d
00000130: ea7c 7a3a 7203 91bd 43b4 563d a773 39be
00000140: 7792 5bbe 03e3 5abe 8f65 24be f865 a93b
00000150: 090f dd3c 54b0 2fbe 73f1 4ebd c7d5 433c
00000160: 676b ca3d 20f0 463e 75aa b23d 2a61 a63d
00000170: d5ab 9d3d f37f f4bd 8a24 0bbe 66a7 77be
00000180: 71c9 f4bd 816e 413e 45e9 d93d 8bd3 c6bd
00000190: cd16 e4bd c194 3e3e dfe2 3fbe 2a27 5dbd
000001a0: 230d 973d fbec 273d 650c a83d 7c5e 043e
000001b0: 76a1 c83d c581 f23d 217a 9ebc fb6f 29bc
000001c0: 96a6 2f3e d5ef 553d 06ca 983d f35d 1e3e
000001d0: a138 563d e861 953c 2940 613e 30d0 083e
000001e0: 1e6c 27bd d31b 1abe 6406 b6bd b293 39bd
000001f0: 1076 dcbd 4cec 413e e7ac 0cbe ec17 783d
00000200: 5afc 20bd 916e 65be 030b b8bc 512d f7bd
00000210: afad 95bc bf98 d8bd 5d7c 15be 623f d93d
00000220: bda9 403d 9e36 6abe 037a c8bc 9003 39be
00000230: c1a2 273d bfa0 5d3e 5c0e e1bd 6333 563c
00000240: 96e5 eabd 90d7 883e 4a77 b1bd 1fab 42bd
00000250: 8154 84bc 00a0 0cbd f167 c23d 9f17 17be
00000260: 640a bb3c 06e6 563d f40d 45be 7ef7 cbbd
00000270: 5a24 b93b 3db1 77be 62a3 a3bc a72b 8a3d
00000280: c133 e4bd f85d 2dbe fee8 50be 0882 03be
00000290: 70ce e73d bf23 613d f2a6 823d 3932 87bd
000002a0: 4755 7cbe 45ab e93b 36e9 4f3d d770 333c
000002b0: 68d1 203e aa97 53bd dbff 0abd 5f33 fd3d
000002c0: 6010 703d d047 06bd 5774 423d 9904 fabd
000002d0: e76a e1bd bb9b bbbd f2a2 5dbe 0753 373c
000002e0: 7a66 eebd 4b50 c83d 5bb7 333d ec7c febd
000002f0: bd8a 28be 487d cbbd 5651 8bbe 808e 5abd
00000300: 7870 d5bd 1bf7 503e 4e35 a73d 00aa a3bb
00000310: 63af 6f3e a0f9 3e3e 8406 7cbd 98b2 e7bc
00000320: 0048 e13d 3c03 a13c 3786 5a3e b0ea 26bd
00000330: 00fa 083e 5c20 683b 1e23 793d e7fe 243d
00000340: c8fd 5a3d 2dcf 82be 1ba2 dc3c e054 583d
00000350: 53ce dabd 4a96 9ebd cd28 cbbd 5132 8ebe
00000360: f6df a93d a7f7 143e c2d5 63be 42b7 4b3e
00000370: fc0d 59bd 06e0 0e3e d4d0 0bbe 7fb7 43bd
00000380: c528 913e ca6f 433d 99f3 e13c 6351 723e
00000390: 3577 963d 8909 e7bd 862e 0c3e f393 9b3d
000003a0: 310f 94bd e6aa 9f3e 2570 cb3d 2914 41bd
000003b0: 3ffd 6abe 8625 22be 61a7 50be f959 5dbd
000003c0: 28b8 6cbe d22e 313c c4da b9bd 60cf fd3d
000003d0: 93eb dabd 0fa2 5d3e f7a5 433e 8493 cfbd
000003e0: 6857 49be ed04 a6bd 2eb5 5c3e b6bd 6bbe
000003f0: 39fe b73d 01e2 1f3e ae69 d33d 66ee d63d

obs_hidden.0.0.bias f4 [80]
-0.06946278 -0.16086335 -0.040920675 -0.06960963 -0.051970836 -0.20609939 -0.13058741 -0.25758106
-0.26445153 -0.05966712 -0.18458937 -0.0526731 -0.21231502 -0.21301034 0.16667977 -0.0467389
0.09431564 -0.21071872 -0.06984449 -0.23759606 -0.103400774 -0.11764162 0.062320873 -0.13198
-0.2949543 -0.20326048 0.020897066 -0.17792955 -0.010289344 0.03442228 -0.08029275 0.051713083
0.13837525 -0.13037603 -0.18722269 0.004696196 -0.16358101 0.062131707 -0.023675773 -0.030863479
-0.08125294 -0.067238115 -0.17743096 0.028555965 0.124467954 0.03580026 0.06985186 -0.15335044
0.052693795 0.035383713 0.057664823 -0.053116206 0.11287596 -0.04750308 0.024165982 -0.080806635
-0.070782304 0.063898996 0.19268413 -0.10362589 0.029781355 -0.07972151 0.106718734 0.10036401
-0.16804989 -0.21088082 0.11715695 -0.18790647 -0.22198698 0.047934882 0.07202544 -0.11045364
-0.1595522 0.14664252 -0.07104767 0.053459875 0.059377626 -0.2499328 -0.15435475 0.095167264
00000000: 8142 8ebd 5db9 24be 709c 27bd 7e8f 8ebd
00000010: 5fdf 54bd b80b 53be b5b8 05be aae1 83be
00000020: 3166 87be 8365 74bd ff04 3dbe c0bf 57bd
00000030: 1c69 59be 621f 5abe 1aae 2a3e 4a71 3fbd
00000040: 8f28 c13d a6c6 57be a10a 8fbd 624c 73be
00000050: c9c3 d3bd 17ee f0bd 2c44 7f3d c425 07be
00000060: 4004 97be 8423 50be 5330 ab3c 2a33 36be
00000070: a394 28bc 60fe 0c3d 8670 a4bd 19d1 533d
00000080: 3eb2 0d3e 4b81 05be 4eb7 3fbe 8ce2 993b
00000090: c881 27be d17d 7e3d b2f3 c1bc 68d5 fcbc
000000a0: f167 a6bd 23b4 89bd 76b0 35be 33ee e93c
000000b0: 0ee9 fe3d 4ba3 123d 7e0e 8f3d e607 1dbe
000000c0: 73d5 573d 83ee 103d f331 6c3d 6190 59bd
000000d0: 832b e73d 9792 42bd bdf7 c53c f37d a5bd
000000e0: 50f6 90bd 7add 823d fd4e 453e d039 d4bd
000000f0: 07f8 f33c 0845 a3bd 5a8f da3d a58b cd3d
00000100: 4515 2cbe 24f1 57be fcef ef3d 8e6a 40be
00000110: 8e50 63be 5e57 443d 1382 933d 8535 e2bd
00000120: a761 23be 7529 163e 7181 91bd bef8 5a3d
00000130: f435 733d 62ee 7fbe 2c0f 1ebe 0ee7 c23d

obs_hidden.1.0.weight f4 [40, 80]
0.018696696 0.045752913 -0.07730563 -0.024091005 0.0032467586 0.09814341 -0.01289811 -0.10899288
0.08027491 -0.07599376 -0.082751065 0.027444988 0.05597046 0.07150553 0.10619593 -0.043443933
-0.067024454 -0.041887693 -0.08503264 -0.0710551 -0.033632796 -0.046408847 0.07001212 -0.08730079
-0.09447702 -0.026339412 -0.03244905 -0.015084984 0.055735722 -0.11520088 0.077547275 0.010318644
-0.04975011 0.07459076 0.10129836 -0.08594145 0.10308437 -0.012153856 -0.055929914 -0.053131793
-0.102319494 0.009079687 0.013719559 -0.055591356 -0.038097657 -0.0035748258 -0.10192739 0.07513416
-0.0027507395 0.021509431 0.0604171 0.060158983 -0.014681282 -0.10725286 -0.074363634 0.01510711
-0.0035915673 0.04364037 -0.100835964 -0.10576189 -0.103894226 -0.08683761 -0.049181588 -0.0123204645
0.10335861 0.07141712 0.06698601 -0.021155246 -0.063785374 -0.034855142 0.04778208 -0.12520781
0.092256874 -0.10072113 -0.067457505 0.10509913 -0.012547585 0.06970088 -0.06823138 -0.09752339
0.03553968 -0.0027619451 -0.044113327 0.058960848 -0.077014424 0.06068435 0.09674122 -0.016440615
0.089360796 0.04729374 -0.13151407 -0.009414578 -0.028145438 -0.031095158 0.04992869 0.0771678
-0.04759656 0.07937348 -0.0024792906 -0.0300786 0.0652562 -0.073278986 0.0790029 0.06396538
-0.06619889 -0.050018042 -0.028304877 -0.10518287 0.06680774 0.013443078 -0.09786272 -0.13140875
-0.0838802 0.038984522 0.038890447 -0.06264164 0.0067829895 0.06824318 -0.06112937 -0.0024482834
-0.04451744 -0.044061154 0.072398044 -0.006008297 0.013366143 -0.08489267 -0.1139953 0.08709655
-0.006825732 0.05211576 -0.14194204 -0.037110906 0.03820631 -0.033067357 -0.115072794 -0.059202727
0.05971097 -0.018879008 0.059976898 -0.027194003 -0.07987331 -0.06935735 -0.004386451 0.033361677
-0.10033983 0.053515404 0.061778586 -0.025491487 -0.060143948 0.09124814 -0.07948249 -0.07092821
-0.10507654 -0.05096833 -0.032916576 -0.004099193 0.0400881 0.040660474 -0.107803315 0.021755697
-0.095929526 -0.09379725 -0.006409981 0.070411325 0.048659366 0.026492583 -0.112723015 0.03825906
0.091987275 -0.07865584 -0.001039467 -0.0694078 -0.06559965 -0.04876611 -0.063854896 0.06338619
0.0053972243 0.08142487 -0.035367098 -0.09544897 -0.06725545 -0.020169899 -0.034968555 -0.07286267
-0.023083922 -0.012785187 0.06919165 -0.030075848 -0.053848945 0.053342067 -0.12936956 -0.06093503
0.012683567 -0.045475684 0.042073637 -0.09396665 0.03917735 -0.010061264 -0.060342744 0.04085906
-0.03319185 -0.109397575 -0.08170098 0.058247536 -0.042029526 0.033063933 -0.064137936 0.10320823
-0.07010439 0.034065373 0.060225908 -0.024165273 -0.12667976 -0.0005232984 -0.069277525 0.011633312
0.050588388 -0.09082706 -0.119426936 -0.047166217 -0.096141115 0.07575777 -0.09104763 0.05028538
-0.0114407865 -0.065553494 -0.054217838 -0.11357696 -0.014068242 0.06601983 0.08242984 -0.040528864
-0.05171736 -0.048583034 0.059575118 -0.015104145 0.03104183 -0.025391048 -0.013252936 -0.06389613
0.021711487 -0.037456542 -0.0950178 0.0911594 -0.018328428 0.044518337 0.009191601 -0.06616429
0.067510344 -0.023307813 0.0037341658 0.027377477 -0.09730395 0.012755939 0.02189194 -0.044777364
00000000: d029 993c 6867 3b3d 6a52 9ebd 805a c5bc
00000010: 92c7 543b 6aff c83d 9852 53bc a937 dfbd
00000020: 2c67 a43d 9ea2 9bbd 6479 a9bd 50d4 e03c
00000030: 4841 653d 7e71 923d 407d d93d 44f2 31bd
00000040: 1e44 89bd 6e92 2bbd 9825 aebd 5685 91bd
00000050: 8bc2 09bd 3417 3ebd 8462 8f3d c2ca b2bd
00000060: 2b7d c1bd c0c5 d7bc 4ce9 04bd 0227 77bc
00000070: 244b 643d 70ee ebbd 1bd1 9e3d 880f 293c
00000080: c5c6 4bbd 0ac3 983d 8475 cf3d 1202 b0bd
00000090: e61d d33d f820 47bc c416 65bd b9a0 59bd
000000a0: e28c d1bd f8c2 143c 00c8 603c c3b3 63bd
000000b0: 4a0c 1cbd a047 6abb 4fbf d0bd f0df 993d
000000c0: c045 34bb 8c34 b03c ec77 773d 4469 763d
000000d0: c389 70bc 63a7 dbbd f64b 98bd d083 773c
000000e0: 8060 6bbb 3fc0 323d 1683 cebd b199 d8bd
000000f0: 7fc6 d4bd ebd7 b1bd a272 49bd c6db 49bc
00000100: aead d33d 2443 923d f62f 893d c44d adbc
00000110: e8a1 82bd 44c4 0ebd 24b7 433d 7a36 00be
00000120: 2cf1 bc3d e146 cebd 2927 8abd 363e d73d
00000130: 6394 4dbc 56bf 8e3d e5bc 8bbd 58ba c7bd
00000140: 0e92 113d c001 35bb 2db0 34bd ee80 713d
00000150: bdb9 9dbd 2790 783d 4320 c63d 78ae 86bc
00000160: cb02 b73d 15b7 413d a0ab 06be 9a3f 1abc
00000170: 4391 e6bc 46bb febc 0782 4c3d 270a 9e3d
00000180: 9cf4 42bd 908e a23d 987b 22bb 6567 f6bc
00000190: 0ba5 853d 4b13 96bd 46cc a13d 4800 833d
000001a0: 4993 87bd b8df 4cbd a1df e7bc 1e6a d7bd
000001b0: 7fd2 883d 5b40 5c3c 406c c8bd 0490 06be
000001c0: 62c9 abbd 3cae 1f3d 974b 1f3d 434a 80bd
000001d0: d743 de3b 15c3 8b3d ca62 7abd 6173 20bb
000001e0: eb57 36bd 7879 34bd 6d45 943d 40e1 c4bb
000001f0: abfd 5a3c 35dc adbd 5e76 e9bd ad5f b23d
00000200: 64aa dfbb 5677 553d 4159 11be 9b01 18bd
00000210: 387e 1c3d a371 07bd 49ab ebbd 8f7e 72bd
00000220: 7d93 743d 26a8 9abc 56aa 753d f5c5 debc
00000230: 9e94 a3bd 3a0b 8ebd 38bc 8fbb 41a6 083d
00000240: f87e cdbd f832 5b3d 8b0b 7d3d 86d3 d0bc
00000250: 8059 76bd 4ee0 ba3d b7c7 a2bd cf42 91bd
00000260: 5e32 d7bd 2bc4 50bd 88d3 06bd 8652 86bb
00000270: 6b33 243d 998b 263d fcc7 dcbd 0139 b23c
00000280: b376 c4bd c618 c0bd d10a d2bb d033 903d
00000290: 0b4f 473d f906 d93c 53db e6bd 88b5 1c3d
000002a0: d363 bc3d 5016 a1bd ba3e 88ba ad25 8ebd
000002b0: 1c59 86bd f9be 47bd 5bc6 82bd 9ed0 813d
000002c0: 33db b03b 15c2 a63d 17dd 10bd c07a c3bd
000002d0: 3abd 89bd 583b a5bc 303b 0fbd 0639 95bd
000002e0: 7e1a bdbc f678 51bc 5ab4 8d3d a061 f6bc
000002f0: b690 5cbd 367d 5a3d 7479 04be 0397 79bd
00000300: bcce 4f3c b644 3abd 6855 2c3d 9671 c0bd
00000310: 6e78 203d 00d8 24bc f429 77bd d45b 273d
00000320: 2df4 07bd d60b e0bd d852 a7bd f894 6e3d
00000330: 2727 2cbd 0c6e 073d c05a 83bd d65e d33d
00000340: e492 8fbd 2288 0b3d 71af 763d 40f6 c5bc
00000350: 57b8 01be f62d 09ba 60e1 8dbd a699 3e3c
00000360: c535 4f3d 8a03 babd 1c96 f4bd 5d31 41bd
00000370: a2e5 c4bd e426 9b3d 2e77 babd 0bf8 4d3d
00000380: 2372 3bbc e940 86bd 8613 5ebd 0a9b e8bd
00000390: 7c7e 66bc 6835 873d fad0 a83d 9801 26bd
000003a0: 95d5 53bd 01ff 46bd 0a05 743d 6077 77bc
000003b0: 704b fe3c e300 d0bc d822 59bc f9db 82bd
000003c0: 4adc b13c 086c 19bd b198 c2bd c8b1 ba3d
000003d0: 8025 96bc dc58 363d 5e98 163c 2581 87bd
000003e0: dd42 8a3d 07f0 bebc e8b8 743b bb46 e03c
000003f0: 4b47 c7bd 49fe 503c ba56 b33c 7868 37bd

obs_hidden.1.0.bias f4 [40]
-0.10125346 0.0326614 -0.0069768587 0.045106906 -0.061763432 0.033948675 -0.012988247 -0.087776534
-0.113067366 0.04867621 0.021803977 -0.09718383 -0.0032606083 0.032408815 -0.051734097 0.069939904
0.0046717683 0.043637652 0.008632855 -0.07887784 0.023634454 0.039138854 -0.13914336 -0.1366355
-0.047021423 0.02808477 -0.06416539 -0.065491945 -0.018032324 0.02298461 0.07342906 -0.1114743
-0.07342252 -0.0678389 -0.08876816 0.06504627 -0.050989605 0.032853965 0.010680255 -0.13929594
00000000: f95d cfbd f6c7 053d 229e e4bb 05c2 383d
00000010: a7fb 7cbd c40d 0b3d a8cc 54bc 2fc4 b3bd
00000020: dd8f e7bd b560 473d 419e b23c 5108 c7bd
00000030: eeaf 55bb 1bbf 043d 22e7 53bd a73c 8f3d
00000040: a215 993b 65bd 323d d170 0d3c b48a a1bd
00000050: 0b9d c13c 1050 203d 997b 0ebe 2dea 0bbe
00000060: 8999 40bd 0812 e63c 2569 83bd a420 86bd
00000070: 86b8 93bc 394a bc3c fa61 963d a34c e4bd
00000080: 8c5e 96bd 1fef 8abd 15cc b5bd fb36 853d
00000090: 7ada 50bd e191 063d 3cfc 2e3c 98a3 0ebe

central_hidden.0.0.weight f4 [80, 8]
-0.06506733 0.015381138 -0.20229904 0.09614449 0.0647575 0.06778169 0.053657375 0.046073496
-0.15374942 0.07702848 -0.11582523 -0.3372537 -0.22513863 0.11997774 0.07964132 -0.3128278
0.024434177 -0.05601003 -0.32033348 -0.2089501 0.042443097 0.20518725 0.23309527 0.16251841
0.055199698 -0.023147652 -0.3248068 -0.40370518 -0.0001314093 0.14544216 -0.38705996 -0.38899267
-0.09915676 -0.12169538 -0.14587584 -0.13181615 0.18748705 0.22041935 0.18773094 -0.09352296
0.03723653 -0.19624168 -0.12915325 -0.13258365 -0.28555065 -0.29515433 0.014881239 -0.19623126
0.07874246 -0.36814463 -0.29004723 -0.20522352 -0.2644268 -0.37783936 -0.017224548 -0.030455546
-0.36571634 -0.05905964 -0.1935612 -0.18702433 -0.41185394 -0.034616023 -0.36615068 0.1774209
-0.08802866 0.0010976727 0.1382863 0.17090191 0.05978562 0.05269243 -0.11447546 -0.1696347
-0.15301204 0.23622285 0.040399026 -0.13368382 0.08919232 0.04479844 0.03147975 0.064547025
-0.043367226 0.15877756 -0.19733614 0.0995745 -0.2491475 0.16125941 0.0145344185 0.15274723
-0.23280637 -0.17191148 -0.12494082 0.3091518 -0.39693728 0.02385 -0.16445224 -0.09887376
-0.4258238 -0.14124762 -0.20610318 0.111891955 -0.208226 -0.27545977 -0.4397109 0.057781525
-0.17714864 0.015269462 -0.027068013 0.048322935 -0.49227154 -0.3621574 -0.20234713 -0.17208272
-0.45309964 0.079891734 -0.33513796 -0.20076399 0.27911502 0.16191077 0.109480135 0.13108349
-0.46581584 0.14238352 -0.1921254 0.063456416 -0.2188176 0.042918947 -0.09878128 0.05377851
-0.24701169 -0.098666705 0.029984716 -0.3392051 -0.25233686 0.33471164 -0.103899755 -0.19689673
-0.40203068 -0.17020297 -0.0064281984 -0.26165494 -0.3047373 -0.49921155 0.06733901 -0.04433801
-0.25045228 0.023785472 -0.25331673 -0.06788954 0.03906654 -0.37685493 -0.01040378 0.09856951
-0.04657148 -0.36623862 -0.17821735 -0.02176459 -0.18861818 -0.07070364 -0.23369011 -0.048605673
-0.11471229 -0.33051816 0.06891247 -0.22831969 0.27167204 0.28559747 -0.09294739 0.27346474
-0.3822505 -0.291375 0.001929249 0.04351429 -0.32586202 -0.21507667 -0.24643424 0.12734737
-0.18229946 0.091091596 0.0037029043 0.18188877 0.008729361 -0.049679402 -0.060434174 0.18163079
-0.02784351 -0.091695234 -0.011478284 0.048259217 -0.27767348 0.004073717 -0.1916191 -0.3217748
0.052669037 0.15835798 0.050243028 0.07874256 0.14448293 -0.06790947 -0.12814151 0.023532955
0.020478658 0.27190992 -0.16375962 -0.23440424 -0.29030767 -0.31288794 -0.20598812 -0.29371023
-0.004941709 -0.24284634 -0.29419425 -0.007578899 -0.012878081 -0.19807094 -0.16913146 0.08509296
-0.13353196 -0.4019054 -0.29393846 0.01278732 -0.09847231 -0.16745396 -0.18626705 -0.036247775
-0.4416229 -0.42295858 -0.4891629 -0.106365986 0.09489165 -0.101915844 0.03762001 0.06889522
-0.052358598 0.014307822 0.09793019 0.0072499895 -0.05613456 0.045109544 -0.14368956 0.027810542
0.010534072 -0.08283645 0.06268763 -0.03361125 0.124293566 0.051060755 0.03058432 -0.10434329
0.027266964 -0.06211959 0.04613647 -0.21338648 0.017499823 0.029808506 0.14687766 0.060053557
00000000: 0542 85bd 2b01 7c3c 7b27 4fbe 67e7 c43d
00000010: 959f 843d 20d1 8a3d d6c7 5b3d 90b7 3c3d
00000020: 7d70 1dbe 1cc1 9d3d c735 edbd 84ac acbe
00000030: be8a 66be e4b6 f53d fd1a a33d f72a a0be
00000040: 2f2a c83c c66a 65bd c002 a4be 04f7 55be
00000050: d0d8 2d3d 9b1c 523e 87b0 6e3e 3a6b 263e
00000060: 1419 623d 25a0 bdbc 144d a6be 72b2 cebe
00000070: eaca 09b9 caee 143e b92c c6be 0c2a c7be
00000080: b312 cbbd 6d3b f9bd 7a60 15be d0fa 06be
00000090: 9bfc 3f3e 9cb5 613e 8a3c 403e f788 bfbd
000000a0: 5585 183d 94f3 48be c040 04be 02c4 07be
000000b0: b233 92be 781e 97be 71d0 733c d9f0 48be
000000c0: ba43 a13d 747d bcbe 1281 94be 1d26 52be
000000d0: f362 87be 2974 c1be 7f1a 8dbc e97d f9bc
000000e0: 2c3f bbbe 85e8 71bd e834 46be 4e83 3fbe
000000f0: 85de d2be 88c9 0dbd 1a78 bbbe d3ad 353e
00000100: 5f48 b4bd c9df 8f3a ec9a 0d3e e900 2f3e
00000110: c4e1 743d 04d4 573d 1c72 eabd b8b4 2dbe
00000120: 30af 1cbe 67e4 713e 7379 253d 69e4 08be
00000130: 77aa b63d 927e 373d e9f0 003d 3b31 843d
00000140: d5a1 31bd 9696 223e 7c12 4abe b7ed cb3d
00000150: 8620 7fbe 3021 253e c521 6e3c c569 1c3e
00000160: cb64 6ebe 9009 30be f9e0 ffbd 2549 9e3e
00000170: 5d3b cbbe 1361 c33c 2b66 28be 537e cabd
00000180: 9405 dabe 37a3 10be b60c 53be 9c27 e53d
00000190: 3239 55be 1009 8dbe c921 e1be 52ac 6c3d
000001a0: 7466 35be c42c 7a3c bdbd ddbc 45ee 453d
000001b0: 040b fcbe b26c b9be 1634 4fbe 7436 30be
000001c0: adfc e7be 479e a33d 3497 abbe 1395 4dbe
000001d0: 2ae8 8e3e f0cb 253e 1f37 e03d c03a 063e
000001e0: 6a7f eebe fccc 113e 85bc 44be 70f5 813d
000001f0: b911 60be c7cb 2f3d d74d cabd db46 5c3d
00000200: a2f0 7cbe c511 cabd 82a2 f53c 4aac adbe
00000210: 4c32 81be 535f ab3e 65c9 d4bd 4c9f 49be
00000220: f7d6 cdbe b049 2ebe a3a3 d2bb a3f7 85be
00000230: 8706 9cbe a898 ffbe 09e9 893d c69b 35bd
00000240: 483b 80be c0d9 c23c bbb2 81be ac09 8bbd
00000250: 3c04 203d 21f3 c0be 9e74 2abc d0de c93d
00000260: bcc1 3ebd a183 bbbe 9c7e 36be a74b b2bc
00000270: 2025 41be 12cd 90bd 764c 6fbe be16 47bd
00000280: 47ee eabd ad39 a9be fb21 8d3d a3cc 69be
00000290: 9918 8b3e d539 923e 345b bebd 9203 8c3e
000002a0: 56b6 c3be 1b2f 95be dbde fc3a 0a3c 323d
000002b0: 63d7 a6be 0f3d 5cbe 4259 7cbe 5967 023e
000002c0: b6ac 3abe 3b8e ba3d 6dac 723b 0d41 3a3e
000002d0: 9805 0f3c a17c 4bbd d389 77bd 6cfd 393e
000002e0: 1318 e4bc b6ca bbbd 6a0f 3cbc 75ab 453d
000002f0: 382b 8ebe d17c 853b cc37 44be abbf a4be
00000300: 7dbb 573d 9828 223e a2cb 4d3d c843 a13d
00000310: 55f3 133e 1f14 8bbd 8737 03be 2fc8 c03c
00000320: dcc2 a73c c737 8b3e 9ab0 27be aa07 70be
00000330: 35a3 94be d932 a0be 8dee 52be 3061 96be
00000340: 0fee a1bb b6ac 78be a1a0 96be 6a58 f8bb
00000350: 96fe 52bc 1cd3 4abe cc30 2dbe 3845 ae3d
00000360: 9abc 08be 8bc6 cdbe 1a7f 96be e881 513c
00000370: daab c9bd 0d79 2bbe cabc 3ebe 8c78 14bd
00000380: 661c e2be 078e d8be 8f73 fabe 69d6 d9bd
00000390: 8e56 c23d 41b9 d0bd 7117 1a3d f018 8d3d
000003a0: f875 56bd 5b6b 6a3c a08f c83d 5291 ed3b
000003b0: 5aed 65bd c9c4 383d 5b23 13be efd2 e33c
000003c0: 1a97 2c3c 28a6 a9bd 5f62 803d f3ab 09bd
000003d0: a08d fe3d 1525 513d f88b fa3c efb1 d5bd
000003e0: f85e df3c 1c71 7ebd 98f9 3c3d fc81 5abe
000003f0: ca5b 8f3c f830 f43c 1967 163e b8fa 753d

central_hidden.0.0.bias f4 [80]
1.4034334 0.74555105 -0.9059814 0.2997019 -0.9917029 0.11678073 -0.28111035 -0.3785616
1.521861 1.531543 1.5999466 0.6524013 0.23873056 -0.07660736 -0.40136358 0.36161447
0.25020868 0.27390337 0.8395655 0.5635824 -0.8478479 0.23894452 1.702427 0.14700705
1.6810491 0.4469255 -0.32608965 0.53308165 0.06801137 1.7278571 1.6874162 1.7151364
-0.081716925 -0.49629974 -0.09010073 1.5010912 -0.23939528 1.6620443 0.3430941 1.5523988
0.12872729 -0.73631454 0.15825664 0.38617924 1.4920316 0.7181911 -0.25898704 1.8195864
0.5273055 -0.25782874 -0.53551626 1.1452012 1.6974232 0.40727505 0.11617302 0.020444406
-0.918041 1.0012794 0.29189697 0.21720912 0.3719794 1.5432532 -0.79771054 1.5208983
1.5503625 -1.0024018 -0.4438284 0.5518858 1.504784 0.3589549 -0.30260712 0.13176844
0.4264529 1.618809 -0.029785419 0.014932309 -0.08152468 1.4288652 0.45765758 0.18394227
00000000: b5a3 b33f 6fdc 3e3f 66ee 67bf 8772 993e
00000010: 3ee0 7dbf bc2a ef3d b2ed 8fbe d3d2 c1be
00000020: 57cc c23f 9a09 c43f 0dcb cc3f c603 273f
00000030: c975 743e 52e4 9cbd 877f cdbe 8825 b93e
00000040: 5a1b 803e 103d 8c3e c4ed 563f f046 103f
00000050: 8f0c 59bf dfad 743e 21e9 d93f 0489 163e
00000060: 9e2c d73f 6bd3 e43e 39f5 a6be 0a78 083f
00000070: 8c49 8b3d 6c2a dd3f 41fd d73f 9789 db3f
00000080: 345b a7bd 001b febe bb86 b8bd c223 c03f
00000090: 0924 75be debd d43f 08aa af3e 01b5 c63f
000000a0: 16d1 033e 1c7f 3cbf 070e 223e 49b9 c53e
000000b0: e4fa be3f 5fdb 373f f399 84be 35e8 e83f
000000c0: 7efd 063f 2102 84be 9817 09bf f495 923f
000000d0: 2a45 d93f 5b86 d03e 1fec ed3d 077b a73c
000000e0: bc04 6bbf ec29 803f 8573 953e 116c 5e3e
000000f0: 1574 be3e 5289 c53f c236 4cbf ccac c23f
00000100: 4772 c63f b44e 80bf 7a3d e3be 6348 0d3f
00000110: c39c c03f f0c8 b73e 52ef 9abe 4eee 063e
00000120: 0958 da3e 2235 cf3f 8d00 f4bc a5a6 743c
00000130: 69f6 a6bd 0ee5 b63f 1852 ea3e 5d5b 3c3e

central_hidden.1.0.weight f4 [40, 80]
-0.0161033 -0.10721565 0.09163244 -0.029370952 0.15865424 -0.030039188 -0.046701718 -0.059465088
-0.14587645 -0.15907465 -0.008281404 -0.19352785 0.049934074 -0.12302882 -0.023633884 -0.049472027
-0.019344753 0.06872373 -0.02716813 -0.1265086 0.177545 -0.17514159 -0.12079328 -0.09031128
-0.052446045 0.017415958 0.12550873 -0.078275554 0.10444584 -0.04267799 -0.048413686 0.016886832
0.08235705 -0.06541815 -0.094089374 -0.28260115 0.076694705 -0.12289778 0.013315788 -0.09716018
-0.0075927046 -0.09778303 -0.12708704 0.016360993 -0.1722399 0.09496677 -0.07425387 -0.08847525
0.0020232906 0.20635787 -0.053530503 -0.08905216 -0.09175194 -0.050929815 -0.06852414 0.013815612
-0.14343427 0.01766112 0.04921443 0.021829274 -0.12970117 0.00722179 0.032311093 -0.15027718
-0.07170646 -0.14875913 -0.13594365 -0.13601133 -0.03594693 -0.08096824 -0.053072732 -0.06727497
0.024399653 -0.25647604 -0.00978646 -0.070615366 0.044828366 -0.22511546 0.071152255 0.031616814
-0.043971606 0.13399975 -0.0838812 0.14943686 -0.118213266 0.047828827 0.045137502 0.011624769
0.14687172 -0.036006574 0.045070447 0.055384286 -0.008513795 -0.01340822 0.019209854 0.037581872
-0.03299099 -0.0463451 0.15362741 0.051595826 -0.22174901 0.08297875 0.21968047 -0.0043264735
0.036758106 0.11255924 -0.10408256 0.05798109 0.103781275 0.20816493 0.14260565 0.07976405
0.044076145 0.11465829 0.01212455 0.038132794 -0.004990467 0.039341673 -0.047374036 0.11090857
0.10516447 -0.13407096 0.1456537 -0.045786362 0.07631733 -0.10611057 0.026637875 0.065788254
-0.025072731 -0.08663851 -0.027043924 0.15397008 0.1801542 0.1077464 0.09354852 0.03638825
-0.1176592 0.016536329 0.05784677 -0.024384879 -0.06833003 0.09191263 0.03824044 0.033670366
0.13716789 -0.19404162 0.051535282 0.1743262 0.0215243 -0.01912634 0.08152711 0.16078442
0.0066243117 0.11662592 -0.062913455 0.099671826 0.12071927 -0.033283997 -0.03555431 0.014079427
-0.011372257 -0.07749762 -0.10520719 -0.04598264 0.1163605 0.06822762 0.09668336 -0.00932907
-0.1503513 -0.08861564 0.031617306 -0.121342294 -0.097063325 -0.044941306 -0.0405837 -0.015129969
-0.005710621 0.03160112 0.056161113 -0.11162385 0.04313681 0.048327614 -0.07554885 0.020772055
0.008769358 -0.049428247 -0.044830076 0.05539347 -0.0182459 -0.079599224 0.035314966 0.032547615
0.04948147 -0.042442024 0.016757203 -0.058256824 0.016223822 -0.05871461 0.09705414 -0.14503439
0.008340637 0.008584654 -0.05305033 -0.05663968 -0.081862584 -0.038073696 -0.05799194 0.038929474
-0.037200335 0.10157529 0.067809105 -0.021217996 0.0065891766 -0.022305312 -0.10607467 -0.049976334
0.03492587 -0.116732284 -0.06806704 -0.108710155 -0.050818365 -0.071720354 -0.014798082 -0.09757764
-0.012172557 -0.038312808 -0.09438847 0.044078656 -0.05669451 0.013847663 0.030852167 -0.09810707
-0.07584269 -0.07221653 -0.120094374 0.011649733 0.0495445 -0.015746448 -0.04225273 -0.09393524
-0.06617433 -0.03022715 -0.45388126 0.07753905 -0.08888343 -0.08540838 -0.070172995 -0.051646188
-0.03189942 -0.100670874 -0.042239185 0.24067213 0.16400905 -0.10766996 -0.24552026 -0.14270341
00000000: 11eb 83bc e193 dbbd caa9 bb3d 5a9b f0bc
00000010: 4276 223e be14 f6bc 4d4a 3fbd aa91 73bd
00000020: a360 15be 77e4 22be baae 07bc 2a2c 46be
00000030: ac87 4c3d 89f6 fbbd d99b c1bc 2ea3 4abd
00000040: e378 9ebc 07bf 8c3d b38f debc 788b 01be
00000050: 5bce 353e 5158 33be 7862 f7bd 1ff5 b8bd
00000060: aad1 56bd e9ab 8e3c 5c85 003e ef4e a0bd
00000070: b3e7 d53d 1ecf 2ebd 6e4d 46bd 4156 8a3c
00000080: d0aa a83d f3f9 85bd eeb1 c0bd 19b1 90be
00000090: 1d12 9d3d d5b1 fbbd 762a 5a3c ebfb c6bd
000000a0: 39cc f8bb 7842 c8bd 1b23 02be 7d07 863c
000000b0: a85f 30be f07d c23d 6a12 98bd 8332 b5bd
000000c0: 2f99 043b 7a4f 533e cd42 5bbd fb60 b6bd
000000d0: 71e8 bbbd c89b 50bd 6256 8cbd e05a 623c
000000e0: 6fe0 12be 0eae 903c 1295 493d 4ed3 b23c
000000f0: 62d0 04be c4a4 ec3b a358 043d 43e2 19be
00000100: d6da 92bd 5054 18be d034 0bbe 8e46 0bbe
00000110: 173d 13bd add2 a5bd cb62 59bd 76c7 89bd
00000120: c8e1 c73c d450 83be 6357 20bc ca9e 90bd
00000130: f39d 373d ab84 66be 46b8 913d a280 013d
00000140: 921b 34bd 3b37 093e e8c9 abbd fa05 193e
00000150: cc19 f2bd 29e8 433d 1ae2 383d d175 3e3c
00000160: 8a65 163e a17b 13bd ca9b 383d a2da 623d
00000170: 727d 0bbc 27ae 5bbc fc5d 9d3c 73ef 193d
00000180: 8f21 07bd 5cd4 3dbd 8150 1d3e 2556 533d
00000190: 2c12 63be c3f0 a93d ebf3 603e 17c5 8dbb
000001a0: ab8f 163d 7585 e63d 3d29 d5bd 947d 6d3d
000001b0: 478b d43d 3029 553e 3707 123e 565b a33d
000001c0: 3089 343d f7d1 ea3d 0ca6 463c 2231 1c3d
000001d0: 1287 a3bb bc24 213d 470b 42bd 0824 e33d
000001e0: 7860 d73d e649 09be 3e26 153e 7b8a 3bbd
000001f0: 434c 9c3d 8050 d9bd ac37 da3c febb 863d
00000200: 5465 cdbc 886f b1bd 388b ddbc 55aa 1d3e
00000210: 587a 383e 25aa dc3d 5e96 bf3d d80b 153d
00000220: 4ff7 f0bd 3277 873c bcf0 6c3d ccc2 c7bc
00000230: 9df0 8bbd b03c bc3d 02a2 1c3d f0e9 093d
00000240: bd75 0c3e d9b2 46be a916 533d 9182 323e
00000250: bb53 b03c d8ae 9cbc aff7 a63d aca4 243e
00000260: c110 d93b 92d9 ee3d c5d8 80bd be20 cc3d
00000270: aa3b f73d cd54 08bd 65a1 11bd 66ad 663c
00000280: b452 3abc 12b7 9ebd de76 d7bd 4b58 3cbd
00000290: 6a4e ee3d ecba 8b3d ed01 c63d f5d8 18bc
000002a0: b1f5 19be 1e7c b5bd 2681 013d 4f82 f8bd
000002b0: 23c9 c6bd 6014 38bd 183b 26bd b1e3 77bc
000002c0: 2920 bbbb 2d70 013d 3209 663d 0c9b e4bd
000002d0: 39b0 303d 2df3 453d 5bb9 9abd 282a aa3c
000002e0: 5aad 0f3c 4675 4abd be9f 37bd 43e4 623d
000002f0: 6d78 95bc eb04 a3bd 6da6 103d a650 053d
00000300: 15ad 4a3d b0d7 2dbd 6746 893c b59e 6ebd
00000310: d2e7 843c bb7e 70bd 52c4 c63d e583 14be
00000320: 2ba7 083c a6a6 0c3c 4e4b 59bd 02ff 67bd
00000330: 92a7 a7bd 2af3 1bbd f588 6dbd 8374 1f3d
00000340: 615f 18bd b506 d03d 80df 8a3d 5dd1 adbc
00000350: 05ea d73b a1b9 b6bc ad3d d9bd fcb3 4cbd
00000360: 6e0e 0f3d 5611 efbd bb66 8bbd 6ea3 debd
00000370: eb26 50bd 1fe2 92bd a873 72bc c9d6 c7bd
00000380: 686f 47bc e4ed 1cbd be4e c1bd d28b 343d
00000390: 8138 68bd 4fe1 623c afbd fc3c 5cec c8bd
000003a0: 6a53 9bbd 43e6 93bd 0af4 f5bd 86de 3e3c
000003b0: 2cef 4a3d b2fe 80bc 3311 2dbd 1e61 c0bd
000003c0: 6886 87bd ee9e f7bc 2063 e8be cbcc 9e3d
000003d0: 8408 b6bd 97ea aebd dcb6 8fbd f48a 53bd
000003e0: f7a8 02bd 882c cebd ff02 2dbd c172 763e
000003f0: fdf1 273e 1182 dcbd aa69 7bbe d820 12be

central_hidden.1.0.bias f4 [40]
-0.26892504 1.6842906 -0.07469175 -0.2311987 0.25482416 1.7224121 1.4802666 0.008269794
0.28044707 1.47689 1.5955088 -0.072001755 -0.18000573 -0.091366045 -0.13106765 -0.06677313
-0.3128561 -0.06944338 1.4608175 1.4394059 -0.12514298 1.7261907 1.6226329 -0.115254946
-0.014451237 -0.015153966 -0.097467646 1.5204483 0.0064035216 -0.19507755 0.044631783 1.6184391
0.01969541 0.043605212 -0.17741168 -0.02337007 1.5616567 -0.11737359 1.6413633 1.516992
00000000: 8bb0 89be d696 d73f fdf7 98bd 5abf 6cbe
00000010: 5078 823e 0078 dc3f 6079 bd3f 087e 073c
00000020: c296 8f3e bb0a bd3f a239 cc3f a875 93bd
00000030: 6c53 38be 1f1e bbbd 9936 06be 5ac0 88bd
00000040: ad2e a0be 5538 8ebd 11fc ba3f 743e b83f
00000050: 7b25 00be d1f3 dc3f 6fb2 cf3f c90a ecbd
00000060: e2c4 6cbc 5748 78bc 1e9d c7bd 0d9e c23f
00000070: a2d4 d13b 69c2 47be d1cf 363d 0329 cf3f
00000080: 4558 a13c 619b 323d 68ab 35be 9772 bfbc
00000090: 5ee4 c73f 9161 f0bd 3118 d23f cb2c c23f

value.weight f4 [1, 40]
-0.0118009355 0.1814345 -0.060241416 -0.048497397 -0.014031811 0.23793274 0.16061305 -0.11944144
0.01831177 0.059091337 0.16909538 -0.092896774 -0.013026525 -0.018050399 -0.009012384 -0.008756888
0.0027626385 -0.110276915 0.074683666 0.089798175 -0.01726821 0.2928197 0.21672782 0.0046287463
-0.06379117 -0.062149383 -0.016086409 0.14827271 -0.07096106 0.0044034636 -0.10940189 0.110734105
-0.026542246 0.084308065 -0.008304855 -0.007818184 0.17071867 -0.08394708 0.26996556 0.16013324
00000000: b658 41bc f7c9 393e b4bf 76bd 35a5 46bd
00000010: aee5 65bc a4a4 733e bf77 243e b79d f4bd
00000020: 9102 963c c209 723d 5727 2d3e aa40 bebd
00000030: 356d 55bc 6ede 93bc aea8 13bc 0d79 0fbc
00000040: 620d 353b ddd8 e1bd c0f3 983d 1be8 b73d
00000050: 1076 8dbc 77ec 953e e6ed 5d3e bdac 973b
00000060: f2a4 82bd 5a90 7ebd a5c7 83bc cdd4 173e
00000070: 0854 91bd ee4a 903b 190e e0bd 90c8 e23d
00000080: 206f d9bc b5a9 ac3d 1611 08bc d717 00bc
00000090: e0d0 2e3e 72ec abbd ed38 8a3e f8f9 233e

policy.0.weight f4 [5, 40]
0.16863683 -0.04105057 -0.024331061 -0.031149715 0.011459069 -0.12374518 0.061432794 0.07664883
-0.08413904 -0.01727681 -0.09617858 0.019413093 0.048407964 -0.004471505 -0.0709486 0.012788507
0.07017502 -0.06365139 -0.06155472 0.09673465 0.09074241 0.021861555 -0.030214304 0.04278963
0.103934065 -0.027737549 -0.057023376 -0.027724156 0.036170196 0.1473743 0.026852928 -0.088554665
0.1352608 -0.049294878 0.060119573 0.0917797 0.030966425 -0.14459525 0.130118 0.03792193
0.014607461 0.083814315 -0.02808608 0.060300145 -0.030224398 -0.068013035 0.06770671 -0.022160036
-0.10075662 0.10515295 -0.08003216 0.08292438 0.121756025 -0.035659254 -0.048360553 0.045663014
-0.016951263 -0.05308234 -0.09404725 0.05070502 0.03198105 -0.13207826 0.12411514 -0.08099639
-0.03169054 -0.03686532 0.09279349 -0.11617952 -0.08679491 0.04517406 0.0076140575 -0.09770309
0.11603451 -0.10563972 -0.031343143 0.110280916 0.0605352 0.06091942 0.085756436 -0.06275767
-0.14666532 0.07537506 -0.061421916 -0.09105053 -0.044798896 -0.05731273 0.078512385 0.09007574
0.02708761 0.005339386 -0.052390236 0.10062927 0.026588816 -0.019070636 -0.041084576 0.13573752
0.016585078 0.006630089 -0.0955595 -0.065694116 0.05995574 0.10203109 0.17329483 0.09339722
0.14752911 -0.12301901 -0.054488666 -0.021573663 0.013169806 -0.05228113 0.1810647 -0.12919743
-0.017014598 0.0073952833 0.06802229 -0.11473359 0.0071877963 0.119506426 0.022010976 0.13386732
-0.013183826 0.119575866 -0.0050045648 -0.0018730843 0.04846271 -0.117231615 0.08373206 0.0036181433
-0.0019423976 0.17010228 -0.052305046 -0.0073751663 0.07744493 0.022906184 -0.071879245 0.1319413
-0.029304538 -0.111820035 -0.06990673 0.019636659 0.050322115 0.003533239 -0.056857217 -0.048159216
-0.019587083 -0.044764444 0.03548284 -0.05998719 -0.048723925 -0.11822537 0.0440895 -0.12442624
0.017835502 -0.006141168 0.075639196 -0.06448513 -0.049587563 -0.070406154 -0.01914505 0.081664875
0.07266002 -0.109349705 -0.05935702 0.00047736766 0.057583824 -0.08318626 0.09363935 0.12160756
-0.12272186 0.04634841 -0.11793279 -0.027950585 0.13209602 0.032306954 -0.03379571 0.1241637
0.050941754 0.112947196 -0.033125322 0.016015971 -0.001976568 -0.057019636 0.10361772 0.11987535
0.058444664 -0.006101235 -0.01502691 0.0817645 -0.07153633 0.0788831 -0.031210016 -0.07782214
-0.03614496 -0.08375068 0.06820211 -0.015403026 0.06348779 -0.119798824 0.13109823 0.107544154
00000000: 22af 2c3e a424 28bd ef51 c7bc b02d ffbc
00000010: d2be 3b3c 1d6e fdbd f4a0 7b3d 10fa 9c3d
00000020: 1751 acbd 1988 8dbc 46f9 c4bd 3508 9f3c
00000030: 6e47 463d b485 92bb 804d 91bd e386 513c
00000040: ecb7 8f3d a95b 82bd cd20 7cbd d11c c63d
00000050: 28d7 b93d 0117 b33c fd83 f7bc 2e44 2f3d
00000060: 62db d43d db39 e3bc 5891 69bd c51d e3bc
00000070: 3327 143d 4ae9 163e acfa db3c 265c b5bd
00000080: cf81 0a3e 6de9 49bd f13f 763d fff6 bb3d
00000090: 4dad fd3c c710 14be a73d 053e 0754 1b3d
000000a0: 2254 6f3c d7a6 ab3d c714 e6bc 49fd 763d
000000b0: 2899 f7bc 6b4a 8bbd d1a9 8a3d f788 b5bc
000000c0: 7d59 cebd 6e5a d73d e7e7 a3bd 42d4 a93d
000000d0: 395b f93d 700f 12bd b715 46bd 2409 3b3d
000000e0: 60dd 8abc de6c 59bd d89b c0bd 11b0 4f3d
000000f0: 90fe 023d 863f 07be 1430 fe3d 6fe1 a5bd
00000100: f1cd 01bd 1700 17bd 830a be3d 87ef edbd
00000110: 88c1 b1bd 6f08 393d 587f f93b 8f18 c8bd
00000120: 80a3 ed3d a359 d8bd ab61 00bd f6da e13d
00000130: c2f3 773d a486 793d 12a1 af3d 1887 80bd
00000140: 6f2f 16be 3d5e 9a3d 8c95 7bbd b378 babd
00000150: 0c7f 37bd c1c0 6abd 1acb a03d a179 b83d
00000160: d6e6 dd3c 04f6 ae3b 2597 56bd b816 ce3d
00000170: cad0 d93c 063a 9cbc 4d48 28bd c7fe 0a3e
00000180: 6edd 873c 3841 d93b b3b4 c3bd a38a 86bd
00000190: 2694 753d adf5 d03d 3374 313e 0b47 bf3d
000001a0: df11 173e 64f1 fbbd 822f 5fbd 40bb b0bc
000001b0: 2cc6 573c bd24 56bd 0669 393e 554c 04be
000001c0: 3362 8bbc 2254 f23b 454f 8b3d 72f9 eabd
000001d0: 9b87 eb3b c9bf f43d 5d50 b43c 8414 093e
000001e0: f900 58bc 31e4 f43d 55fd a3bb 4882 f5ba
000001f0: d680 463d 2117 f0bd b77b ab3d 5f1e 6d3b
00000200: 0c98 feba 4b2f 2e3e d13d 56bd 61ab f1bb
00000210: 739b 9e3d c0a5 bb3c 6d35 93bd 9f1b 073e
00000220: 1210 f0bc e701 e5bd 422b 8fbd 0fdd a03c
00000230: 901e 4e3d ea8d 673b 1de3 68bd 9942 45bd
00000240: 1775 a0bc ec5a 37bd 7456 113d 21b5 75bd
00000250: bd92 47bd 2520 f2bd 3197 343d 2fd3 febd
00000260: c21b 923c da3b c9bb b9e8 9a3d c810 84bd
00000270: 541c 4bbd 1a31 90bd 14d6 9cbc ea3f a73d
00000280: c7ce 943d bdf2 dfbd 5920 73bd 3447 fa39
00000290: 04dd 6b3d 8f5d aabd fdc5 bf3d 620d f93d
000002a0: 9955 fbbd d5d7 3d3d bf86 f1bd a0f8 e4bc
000002b0: 2e44 073e 4c54 043d 5f6d 0abd 8a49 fe3d
000002c0: 4da8 503d dc50 e73d 6bae 07bd ed33 833c
000002d0: 4f89 01bb 6c8d 69bd 8735 d43d 3581 f53d
000002e0: ac63 6f3d deec c7bb 6e33 76bc 2574 a73d
000002f0: a481 92bd 768d a13d 26ac ffbc 3761 9fbd
00000300: bd0c 14bd 7a85 abbd 8cad 8b3d f95c 7cbc
00000310: e305 823d 1659 f5bd 9d3e 063e 1c40 dc3d

policy.0.bias f4 [5]
-0.025547046 0.048856046 -0.036885027 0.05474124 -0.036498826
00000000: 0a48 d1bc 471d 483d c114 17bd 5a38 603d
00000010: cb7f 15bd

hidden_comm.0.weight f4 [40, 6]
0.17948592 0.30327982 0.22251636 0.016777605 0.13421488 0.075112045 0.2928928 0.39566725
-0.23699097 -0.3778438 0.37006348 0.21404403 0.04803905 -0.040020853 -0.38937807 -0.11137447
-0.28336224 0.31248146 0.21328062 0.2414878 -0.26755285 0.021859169 0.36213118 0.29223955
-0.37598214 0.24522549 0.30545437 -0.09445104 0.04222709 -0.017685473 -0.16429222 0.33061117
-0.08968359 -0.38726467 -0.17607966 0.10448074 0.3502531 -0.23943697 -0.31913242 -0.121668994
-0.2945363 0.0053652823 0.3536542 0.24855429 -0.20850126 -0.14770374 -0.29202378 0.14121729
-0.12886474 -0.25018737 -0.022469938 -0.37565523 -0.38523674 0.3240859 -0.08049482 -0.16332044
0.18263453 -0.35402232 -0.3596184 0.27913237 -0.37141308 -0.26259544 -0.010173917 -0.12158492
0.38679725 0.09937155 -0.23348032 -0.06394404 0.26276946 -0.33486316 -0.3642771 0.38412505
0.21490568 0.33337092 0.14675963 -0.010755897 0.21231627 0.12810439 0.30995113 -0.33843744
0.049385816 0.058330983 -0.38431275 0.3150789 0.30754173 0.0045781434 0.014047682 -0.37169325
0.022549063 -0.29167676 -0.1478329 -0.14613625 0.36972976 0.401928 0.36089385 0.26810056
-0.01997289 -0.38237286 -0.15137112 0.20615876 -0.15587321 -0.07696539 -0.3680465 -0.25153583
0.060201645 0.26517022 0.29863757 -0.008884847 -0.023611665 -0.22644965 -0.17770562 -0.099455476
-0.2873761 -0.33530346 0.09938556 -0.025283724 -0.2290525 0.3711328 0.1059857 -0.3049235
-0.22741117 -0.3220848 -0.24134691 -0.15395871 0.25045705 0.17298293 -0.3927774 -0.36305073
0.31156218 0.1733647 0.20857 0.39517266 0.3644603 0.38245404 -0.17680158 -0.04328057
0.11496699 0.2958696 -0.3969801 0.25658125 -0.17466383 -0.37901795 0.0062876344 0.016176462
-0.1547128 0.38610977 -0.07919988 0.36653215 0.18135023 -0.16004996 0.40575385 0.34496456
0.24220687 -0.2833196 0.40533084 -0.36100045 -0.3037081 -0.07816678 -0.034413874 -0.16303271
-0.35671633 -0.031734586 -0.21066567 -0.16651382 -0.067154795 0.052535623 0.29321897 0.33054298
-0.25674248 -0.035960972 -0.03747216 0.279891 -0.32826865 0.26460814 0.2381559 0.3381701
0.2905243 -0.26672643 -0.19628642 -0.083548665 -0.2604733 -0.355861 0.18774354 0.0911738
-0.2830294 0.40550703 -0.092467755 -0.107486784 -0.0013955235 -0.2940917 -0.2128572 -0.20926815
-0.111866534 -0.008120954 0.24866426 0.3623253 0.10807234 -0.12821177 -0.1773815 -0.36350864
-0.37855345 0.14728445 -0.32632026 0.34621817 -0.29037842 -0.39899886 -0.31320664 -0.06715423
-0.2722103 -0.09332746 -0.03611189 0.18724787 -0.12030378 0.3358044 -0.24220768 -0.2067328
0.17916727 0.23417628 -0.32426962 -0.19467707 -0.23238902 -0.003584236 0.19356918 -0.31395456
-0.25605118 0.3942507 0.05144 0.3381456 -0.3861625 0.37346405 0.029621392 0.13705051
0.24134332 -0.3247906 0.31325424 0.031960696 0.112588346 -0.08237356 0.39936602 0.038319558
00000000: 28cb 373e 7e47 9b3e 54db 633e 3071 893c
00000010: a06f 093e 58d4 993d 0cf6 953e e694 ca3e
00000020: c3ad 72be be74 c1be f678 bd3e 5c2e 5b3e
00000030: 98c4 443d e8ec 23bd 905c c7be 4c18 e4bd
00000040: db14 91be 92fd 9f3e 3c66 5a3e 9448 773e
00000050: b0fc 88be 0012 b33c 4269 b93e 6ca0 953e
00000060: bb80 c0be 641c 7b3e 8464 9c3e 8c6f c1bd
00000070: 50f6 2c3d 20e1 90bc 383c 28be de45 a93e
00000080: 08ac b7bd 8e47 c6be 3a4e 34be 00fa d53d
00000090: 6054 b33e f72e 75be 5365 a3be 982d f9bd
000000a0: 76cd 96be 40cf af3b 2a12 b53e 0485 7e3e
000000b0: 5b81 55be a63f 17be 2484 95be 449b 103e
000000c0: 1ef5 03be 8f18 80be e012 b8bc e255 c0be
000000d0: c03d c5be 96ee a53e 78da a4bd 793d 27be
000000e0: 8c04 3b3e 6a42 b5be e71f b8be 70ea 8e3e
000000f0: db29 bebe e972 86be 80b0 26bc 8401 f9bd
00000100: 4a0a c63e 5083 cb3d 7715 6fbe 18f5 82bd
00000110: b889 863e 2f73 abbe 8782 babe 0aac c43e
00000120: 3c10 5c3e 98af aa3e 2848 163e 8039 30bc
00000130: 7069 593e cc2d 033e eab1 9e3e ac47 adbe
00000140: c848 4a3d 78ec 6e3d a4c4 c4be 0652 a13e
00000150: 1c76 9d3e 4004 963b 4028 663c 944e bebe
00000160: d0b8 b83c a856 95be 8261 17be bea4 15be
00000170: 384d bd3e 82c9 cd3e 14c7 b83e 7a44 893e
00000180: 309e a3bc 60c6 c3be 0801 1bbe 481b 533e
00000190: 3a9d 1fbe 08a0 9dbd 9770 bcbe 4ec9 80be
000001a0: 0096 763d 64c4 873e 06e7 983e c091 11bc
000001b0: 406d c1bc 6be2 67be 76f8 35be 50af cbbd
000001c0: f622 93be e5ac abbe a88a cb3d d01f cfbc
000001d0: bd8c 6abe 1e05 be3e 080f d93d ef1e 9cbe
000001e0: 79de 68be 4de8 a4be a523 77be 5aa7 1dbe
000001f0: e83b 803e 7022 313e 1f1a c9be c9e1 b9be
00000200: 1485 9f3e 8486 313e 6093 553e 1254 ca3e
00000210: 8a9a ba3e 04d1 c33e 790b 35be f846 31bd
00000220: d073 eb3d 387c 973e fa40 cbbe 9e5e 833e
00000230: 13db 32be a40e c2be 8008 ce3b 8084 843c
00000240: 086d 1ebe 2eb0 c53e 8c33 a2bd 1aaa bb3e
00000250: e0b3 393e 23e4 23be f8be cf3e 329f b03e
00000260: 1405 783e 440f 91be 8687 cf3e 0dd5 b8be
00000270: a17f 9bbe e815 a0bd 90f5 0cbd 0cf2 26be
00000280: 86a3 b6be 20fc 01bd beb8 57be 9982 2abe
00000290: 7488 89bd 982f 573d cc20 963e ee3c a93e
000002a0: c073 83be d04b 13bd 687c 19bd e04d 8f3e
000002b0: d412 a8be b87a 873e 24df 733e a224 ad3e
000002c0: 9abf 943e 5e90 88be 4fff 48be 901b abbd
000002d0: c25c 85be 6a33 b6be d83f 403e 54b9 ba3d
000002e0: 3be9 90be 9e9e cf3e bc5f bdbd 0822 dcbd
000002f0: 00ea b6ba 3093 96be 3df7 59be 644a 56be
00000300: 481a e5bd c00d 05bc d8a1 7e3e b482 b93e
00000310: 0855 dd3d f249 03be 7fa3 35be ce1d babe
00000320: c2d1 c1be bcd1 163e 7313 a7be 8243 b13e
00000330: 7bac 94be 9449 ccbe 9f5c a0be 2888 89bd
00000340: 265f 8bbe 7822 bfbd 10ea 13bd e8bd 3f3e
00000350: d461 f6bd 8eee ab3e 4a05 78be c3b1 53be
00000360: a077 373e e8cb 6f3e ab06 a6be 6d59 47be
00000370: 63f7 6dbe 80e5 6abb 0037 463e a7be a0be
00000380: 2419 83be 3adb c93e c0b2 523d 6c21 ad3e
00000390: 17b7 c5be ae36 bf3e 90a8 f23c f856 0c3e
000003a0: b422 773e f44a a6be dc62 a03e 38e9 023d
000003b0: b894 e63d 78b3 a8bd b479 cc3e f8f4 1c3d

hidden_comm.0.bias f4 [40]
0.0661878 0.11908853 0.03355658 0.096705794 -0.06864458 0.07035294 -0.11240074 0.16226465
-0.36119026 0.09174734 0.32567418 0.042951733 -0.23459844 0.24172086 -0.30361938 0.106711686
0.10412836 0.38203108 0.25157988 0.092742145 0.23415637 -0.08219859 0.22466707 0.121939
-0.25204313 -0.21697949 0.11427367 -0.11044043 -0.14532912 -0.13648921 0.17461318 0.21434563
0.38983518 0.22724533 -0.26404876 0.13260329 0.05050072 -0.045387894 -0.077822655 0.08473605
00000000: 788d 873d b0e4 f33d a072 093d b00d c63d
00000010: 8895 8cbd 3415 903d 5c32 e6bd b428 263e
00000020: eeed b8be 08e6 bb3d c4be a63e 28ee 2f3d
00000030: 933a 70be ac85 773e 0074 9bbe a88b da3d
00000040: 4041 d53d 9499 c33e 14cf 803e 98ef bd3d
00000050: b0c6 6f3e bc57 a8bd 200f 663e 28bb f93d
00000060: cc0b 81be df2f 5ebe 5008 ea3d 982e e2bd
00000070: 28d1 14be d4c3 0bbe cccd 323e 6c7d 5b3e
00000080: 7a98 c73e 00b3 683e 6631 87be 28c9 073e
00000090: d8d9 4e3d a8e8 39bd 7c61 9fbd 188a ad3d

comm_fn.0.weight f4 [20, 40]
0.13375948 -0.071358606 -0.025385767 0.029041588 -0.15491094 0.07013182 -0.15234803 0.028375104
-0.15700066 0.114923224 0.031472847 0.10102911 0.1051112 -0.13305745 0.13704835 0.13363375
-0.0923573 -0.15110241 -0.07974778 -0.068670355 -0.03248319 0.09126395 -0.1329212 0.023127943
-0.022261575 0.016377777 -0.018747449 0.08747393 -0.11200316 0.09733437 0.14054485 0.023191214
-0.010310754 0.15062962 -0.011140645 -0.038349114 -0.073871545 0.12615772 0.037088394 -0.005767122
0.036755458 -0.032143727 0.152499 -0.1257298 0.013020977 -0.03252986 -0.07065798 -0.07094858
-0.13851619 0.15629359 -0.04611279 -0.13479918 0.0739072 -0.106872015 0.10580133 0.14347835
-0.051658474 -0.03310056 0.08210862 0.03893289 0.15149088 -0.044910625 0.08417313 0.1280645
0.06722735 0.12823464 0.06503682 -0.044176154 -0.035713203 -0.120858386 0.14925171 -0.026131272
0.080713645 -0.034864165 0.09241094 -0.118304834 0.14746283 0.03269495 0.07537328 0.0014965683
0.073666036 0.0065223277 -0.15795654 0.12908338 0.025596157 -0.12006809 -0.05156178 0.07003206
-0.107369766 0.1333219 -0.048839986 -0.057732813 -0.022258833 -0.082974575 -0.0460108 -0.0022574067
0.13710622 0.071026206 -0.005650386 0.14791508 -0.10961687 -0.1225994 -0.027456611 0.054206416
-0.09852016 -0.048657075 -0.038320385 -0.040580526 -0.14965485 0.049186304 -0.097757995 0.033651054
0.122488216 0.033677742 -0.016762272 -0.055031218 -0.0038501322 0.1382363 -0.115918234 -0.0005623698
0.04081288 -0.116235666 -0.06410855 -0.11790663 -0.1552921 0.100159064 -0.05600731 -0.0531845
-0.12555775 -0.008408174 0.1535192 0.049051747 0.1576479 -0.15638685 0.15668027 0.00527364
-0.0790161 0.025330454 -0.1526074 -0.13100891 0.14487846 -0.0033608228 0.06282438 -0.10042556
-0.12339383 0.0719797 -0.11048709 -0.1518298 -0.07060515 0.10234548 0.029829293 0.07545267
-0.13534363 -0.11060995 -0.07156221 -0.13868679 -0.084199056 -0.1111016 0.085555404 0.06740454
-0.12595594 0.100903496 0.09603746 0.07676913 0.15369473 -0.09684916 0.060253277 -0.14224446
-0.024310052 0.050612107 0.018630847 0.060287148 0.037471995 -0.0972702 0.066571474 0.1571574
-0.10900582 -0.14646594 0.029031456 -0.025542393 0.046124294 -0.11621289 0.12762336 -0.124113664
0.11082964 0.062625736 0.048192367 0.09879963 0.10171433 -0.13137409 -0.046122007 0.15393855
-0.07463499 -0.078497194 0.14901425 -0.06910088 0.0851713 -0.121938646 -0.15562877 -0.044096738
-0.05000551 0.090027675 0.10364951 -0.074966386 -0.09091737 -0.10294643 -0.098360136 0.07275359
-0.009534076 0.0015013069 0.0064002275 -0.12087338 -0.15520848 0.0124975 0.10698278 -0.04527416
0.08408244 -0.023737296 0.03559427 0.101499066 -0.08112697 -0.063562505 0.13563131 -0.13771687
-0.013463676 0.11103003 -0.05394259 0.05603449 -0.13432121 -0.069027655 -0.13608892 0.009854972
-0.07670301 -0.1348965 -0.016151875 -0.12244245 -0.03321231 -0.10489464 0.11390482 -0.13224939
-0.010473415 -0.12629503 0.15324448 0.13032667 -0.1221773 0.12707172 -0.093986936 -0.10986166
-0.050925754 0.095482394 0.07964097 -0.032996893 0.04952909 -0.052270494 -0.13163194 0.10012399
00000000: 3ff8 083e 7624 92bd d0f5 cfbc a0e8 ed3c
00000010: f9a0 1ebe 46a1 8f3d 1f01 1cbe e872 e83c
00000020: c8c4 20be de5c eb3d ace9 003d 5ae8 ce3d
00000030: 8a44 d73d 3640 08be 6756 0c3e 49d7 083e
00000040: d325 bdbd 97ba 1abe ce52 a3bd 0ba3 8cbd
00000050: 180d 05bd 98e8 ba3d 7f1c 08be d076 bd3c
00000060: e85d b6bc b02a 863c 4094 99bc 8825 b33d
00000070: ea61 e5bd 3e57 c73d fdea 0f3e 80fb bd3c
00000080: 70ee 28bc a73e 1a3e 4087 36bc f613 1dbd
00000090: f749 97bd 7d2f 013e 00ea 173d 20fa bcbb
000000a0: e48c 163d 24a9 03bd b328 1c3e 50bf 00be
000000b0: f055 553c 083e 05bd 22b5 90bd 7d4d 91bd
000000c0: 30d7 0dbe 6d0b 203e c4e0 3cbd cc08 0abe
000000d0: a85c 973d b7df dabd 5eae d83d fdeb 123e
000000e0: d697 53bd 7494 07bd 9028 a83d 1878 1f3d
000000f0: 6d20 1b3e 34f4 37bd f662 ac3d 5723 033e
00000100: 7eae 893d f14f 033e 0632 853d 0ef2 34bd
00000110: 0248 12bd 9a84 f7bd 71d5 183e 4011 d6bc
00000120: 324d a53d bacd 0ebd f241 bd3d ce49 f2bd
00000130: 7f00 173e 24eb 053d 4e5d 9a3d 8028 c43a
00000140: 38de 963d 40b9 d53b 5cbf 21be 6f2e 043e
00000150: 08af d13c 42e6 f5bd 7232 53bd f86c 8f3d
00000160: aee4 dbbd 8985 083e 700c 48bd 3e79 6cbd
00000170: 2858 b6bc 93ee a9bd d275 3cbd 00f1 13bb
00000180: 9365 0c3e 3076 913d e026 b9bb 0d77 173e
00000190: cf7e e0bd 6515 fbbd b0ec e0bc 8c07 5e3d
000001a0: f0c4 c9bd a44c 47bd d6f5 1cbd c437 26bd
000001b0: 1f3f 19be 9477 493d 5835 c8bd b0d5 093d
000001c0: 1adb fa3d acf1 093d 0851 89bc 6a68 61bd
000001d0: 8052 7cbb d18d 0d3e 8a66 edbd 006c 13ba
000001e0: 682b 273d f70c eebd 584b 83bd 0879 f1bd
000001f0: e404 1fbe 3220 cd3d ec67 65bd fed7 59bd
00000200: 3692 00be 70c2 09bc 2334 1d3e 7cea 483d
00000210: 736e 213e e023 20be cb70 203e 80ce ac3b
00000220: 31d3 a1bd d081 cf3c 1d45 1cbe 3327 06be
00000230: 055b 143e 4041 5cbb 12aa 803d eaab cdbd
00000240: e8b5 fcbd 186a 933d 0e47 e2bd 4579 1bbe
00000250: 6f99 90bd 829a d13d 905c f43c ee86 9a3d
00000260: 8597 0abe 7887 e2bd 358f 92bd e903 0ebe
00000270: 8e70 acbd 3c89 e3bd ac37 af3d 640b 8a3d
00000280: 98fa 00be 7ea6 ce3d 4aaf c43d 2239 9d3d
00000290: 2762 1d3e da58 c6bd 24cc 763d 88a8 11be
000002a0: e025 c7bc a44e 4f3d b89f 983c a8ef 763d
000002b0: 3c7c 193d 9935 c7bd a056 883d dfed 203e
000002c0: 713e dfbd 2bfb 15be 60d3 ed3c 483e d1bc
000002d0: d4ec 3c3d 0601 eebd b3af 023e 4e2f febd
000002e0: a6fa e23d ec41 803d 5c65 453d 7657 ca3d
000002f0: 9a4f d03d ee86 06be 6eea 3cbd 11a2 1d3e
00000300: 3bda 98bd 23c3 a0bd 3197 183e c384 8dbd
00000310: 4a6e ae3d f8ba f9bd 265d 1fbe c89e 34bd
00000320: 94d2 4cbd 6e60 b83d 3246 d43d fa87 99bd
00000330: e332 babd 94d5 d2bd 0a71 c9bd d6ff 943d
00000340: d034 1cbc 80c7 c43a 00b9 d13b 768c f7bd
00000350: f9ee 1ebe 50c2 4c3c ca19 db3d 6671 39bd
00000360: 6a33 ac3d b874 c2bc 4ccb 113d bede cf3d
00000370: e625 a6bd 0f2d 82bd efe2 0a3e a705 0dbe
00000380: c096 5cbc b663 e33d e8f2 5cbd 6c84 653d
00000390: 808b 09be 5f5e 8dbd e55a 0bbe c076 213c
000003a0: 7816 9dbd 4f22 0abe f050 84bc 1bc3 fabd
000003b0: a209 08bd 00d3 d6bd ee46 e93d 626c 07be
000003c0: b098 2bbc 7c53 01be 1fec 1c3e 5b74 053e
000003d0: 1838 fabd 171f 023e 397c c0bd 26ff e0bd
000003e0: 8697 50bd 468c c33d ce1a a33d c027 07bd
000003f0: 04df 4a3d 9619 56bd 86ca 06be ce0d cd3d
