models/actor_critic_1.pkl (torch, 6962 bytes, 15 tensors)

obs_hidden.0.0.weight f4 [6, 9]
000000 54 df 9a be 7c 57 9c be 24 2a dc bc 56 ff 78 3e
       -0.3024851 -0.30535495 -0.026875563 0.24316153
000010 41 26 07 3d 4a 09 46 3e f6 93 a5 3e 48 fc 30 be
       0.032995466 0.19339481 0.32339448 -0.17283738
000020 15 4a 76 be da 7e 3e bd ad 18 06 3e 23 38 83 3e
       -0.24051698 -0.046507694 0.1309535 0.25628766
000030 ae de 23 be a3 84 22 be 3e 1d 7a be 5b 3e c1 bc
       -0.16002914 -0.1587091 -0.24425218 -0.023589304
000040 75 36 28 3e de ea 9f be e3 3a 74 be fc d3 80 bd
       0.16427024 -0.31233877 -0.23850589 -0.06290433
000050 40 07 ba 3c 20 65 6b 3d 76 0b 71 be 96 44 0b be
       0.022708535 0.057469487 -0.23539528 -0.13600382
000060 93 63 1a be da 2f 21 3e 37 89 8c 3e 53 67 39 be
       -0.15077047 0.1574091 0.27448437 -0.18105821
000070 64 82 96 be 80 8f 43 be 20 49 21 bc f6 bc 2f 3e
       -0.29396355 -0.1909771 -0.0098440945 0.17161927
000080 60 7a 13 bc 56 90 8d be 5a db 4d 3e 7a 32 28 3e
       -0.009001344 -0.27649182 0.20103207 0.16425505
000090 5c fb c4 bd fc 10 81 bd 50 05 a1 be 88 ce 7d bd
       -0.096182555 -0.06302068 -0.31449366 -0.06196454
0000a0 ec 96 e8 bd 3c 93 fc bd 10 b6 e1 3c d0 d6 cc bd
       -0.11356911 -0.1233277 0.027552634 -0.1000191
0000b0 46 ab 08 be 30 6e e5 bc b0 33 d9 bd a4 fc 8b bd
       -0.13346586 -0.028006643 -0.10605562 -0.06835297
0000c0 c6 a4 dc bd e4 d4 a4 bd 78 d6 64 be 5a 6f aa be
       -0.107736155 -0.08048418 -0.22347438 -0.3328808
0000d0 20 a7 4b 3d e6 85 17 be
       0.04971993 -0.14797172

obs_hidden.0.0.bias f4 [6]
000000 0d 23 73 bd ab e6 2e 3e 16 36 37 be e3 ba 1d be
       -0.0593596 0.1708018 -0.17891726 -0.15403323
000010 f0 01 ab bc ce 8c 7d 3e
       -0.020874947 0.24760744

obs_hidden.1.0.weight f4 [7, 6]
000000 0f 6f 17 3e b0 91 8d 3e c8 6c 9b 3e 20 35 a4 3c
       0.14788459 0.27650213 0.3035643 0.020044863
000010 92 df a9 3e 08 16 65 3e 70 31 16 bd 5a 83 c1 be
       0.33178383 0.22371686 -0.03666824 -0.37795526
000020 18 11 34 bd 48 fd 51 bd 76 71 4f be fc ed 47 3e
       -0.043961614 -0.05126694 -0.20258126 0.19524378
000030 28 f1 a1 be 86 8a 48 3e 28 cc 0b be 36 7f b1 be
       -0.316293 0.19584092 -0.13652098 -0.34667367
000040 90 99 ed 3d fb b9 7c be e2 93 d2 3d 11 ef 2f be
       0.11601555 -0.24680321 0.10282113 -0.1718104
000050 36 cf 09 be 80 a3 ab 3e 80 e3 94 3e 46 5e 97 be
       -0.13457951 0.33523178 0.2907982 -0.29564112
000060 53 83 27 3d df 22 95 be 08 47 85 3e 90 f9 97 3e
       0.040896725 -0.29128167 0.26030755 0.2968259
000070 8a 39 c1 be 18 30 fe bd a4 9d 47 be b7 5a c0 3e
       -0.3773921 -0.12411517 -0.19493729 0.3756921
000080 91 cc c1 be 48 bc 71 3d 75 1a 49 be 6a 9e 4d be
       -0.37851384 0.05901745 -0.19638999 -0.20079961
000090 28 6d 0e 3d b6 3c 33 be 04 b8 b8 bd 40 ee 2d bd
       0.03477207 -0.17503628 -0.09019473 -0.04246354
0000a0 fc 25 79 be 17 4a b7 be
       -0.24330896 -0.35798714

obs_hidden.1.0.bias f4 [7]
000000 5b 84 13 3e 88 b5 68 be 5f 44 f8 bc 0d b9 5b 3e
       0.14405958 -0.22725499 -0.03030604 0.2145731
000010 7d e8 eb bd 95 fc 86 be 18 ef 9d be
       -0.11518953 -0.2636458 -0.30846477

central_hidden.0.0.weight f4 [6, 8]
000000 4d 5a 33 bd ec 0c 61 3e b1 b2 88 be 8d 12 0a be
       -0.04378729 0.21977586 -0.2669883 -0.13483639
000010 b7 38 19 3e 03 30 6a 3e cf 98 2f be ee 65 53 3e
       0.14963041 0.22869878 -0.17148136 0.20644352
000020 2a 01 ab be 95 bc 83 bc c1 21 56 be a9 2a 71 3e
       -0.33399326 -0.016081134 -0.20911314 0.2355143
000030 e7 63 0d 3e 88 30 71 3e 06 c8 9a bd 0b cf 1e 3c
       0.13807641 0.2355367 -0.07557683 0.009692918
000040 38 3f c6 3d 7f ac 16 be 7e d2 3b 3e 56 44 67 be
       0.09680027 -0.1471424 0.18342015 -0.22584662
000050 5f 18 b4 be 7f 8d 9f be 3e 07 4b be 6c 6a cf 3d
       -0.35174844 -0.3116264 -0.19826981 0.1012772
000060 ee 50 20 3e 9a 8a 6b be a0 27 d2 bd 40 4f 75 bd
       0.15655872 -0.23002091 -0.10261464 -0.05989003
000070 73 40 91 3e 00 93 8f 3e 01 49 a8 3d 84 98 8e 3d
       0.28369483 0.2804184 0.082170494 0.06962684
000080 9c ec 58 3e 4b 52 78 be 56 4b af be f8 33 b4 be
       0.2118401 -0.24250142 -0.34237164 -0.351959
000090 14 bd 2c be 84 1f 83 3e 08 88 d2 3d 2c 8c bf bd
       -0.16869003 0.25609982 0.10279852 -0.093529075
0000a0 bb 82 9d be a0 62 6b 3e 7f 85 85 be d7 3a 3d be
       -0.30763802 0.22986841 -0.26078412 -0.18479477
0000b0 0d 17 83 3e 24 7f 21 be 8f 2e 57 3e f5 93 64 3e
       0.25603524 -0.15771157 0.21013854 0.22322066

central_hidden.0.0.bias f4 [6]
000000 88 56 18 3d 44 69 13 3c 0c ce 91 bd de a2 66 bd
       0.037191898 0.008997265 -0.071193784 -0.056307666
000010 dc 69 8d 3e 16 99 19 3e
       0.27619827 0.14999804

central_hidden.1.0.weight f4 [7, 6]
000000 3a d8 0c be 9d 16 8f 3e 80 87 b4 bd 21 40 98 3e
       -0.13754359 0.2794694 -0.08814907 0.29736426
000010 4d d3 a0 be 0a 65 cd be ab ad a8 bd 96 d5 ce bb
       -0.3141121 -0.4011615 -0.082362495 -0.0063120825
000020 b7 2d 27 be d8 9b 69 3e c8 2e 89 bc db 37 dd 3c
       -0.16326033 0.22813356 -0.01674594 0.027004173
000030 96 95 45 3e 8e 98 66 3d 88 ba cd bd 06 9f 7b 3d
       0.19295344 0.05629783 -0.10045344 0.061430953
000040 bf d4 97 be 3b 1b 06 be 88 62 9b be 43 09 57 be
       -0.296545 -0.13096325 -0.3034861 -0.20999627
000050 30 f9 2f 3e 80 70 42 be 38 db c2 3e cd cb 91 3e
       0.17184901 -0.18988228 0.38057876 0.284758
000060 8c d2 4b be d1 19 39 be 80 ef c0 3b e0 f7 ba be
       -0.19904536 -0.18076254 0.0058879256 -0.3651724
000070 5d 80 66 be a0 a6 5a bd 81 8b 9c 3e 68 38 cf 3e
       -0.22509904 -0.053381562 0.30575183 0.40472722
000080 61 d4 51 be c8 1d c7 3e cb 0e a1 3e 0b 96 76 be
       -0.20491172 0.3888991 0.314566 -0.24080674
000090 3b e4 09 3e a9 d2 ad 3e f8 e6 51 bd 40 ea 43 3e
       0.1346597 0.33949783 -0.05124566 0.19132328
0000a0 db d5 0c 3e 23 2b 70 3d
       0.13753454 0.05863489

central_hidden.1.0.bias f4 [7]
000000 d3 3c 12 be d8 cc b5 3e d1 80 76 be c6 60 b1 3e
       -0.14281015 0.35507846 -0.24072577 0.34644145
000010 72 ae ab be d5 54 7e 3e 79 97 a6 3e
       -0.3353153 0.24837048 0.3253744

value.weight f4 [1, 7]
000000 55 0c 01 3e 27 8c 4d 3e 40 e8 a2 3d a1 e1 8d be
       0.1260236 0.20072995 0.079544544 -0.27711204
000010 26 d0 66 3e 89 ef 9e 3d 22 84 9d be
       0.2254034 0.077605315 -0.30764872

policy.0.weight f4 [5, 7]
000000 30 08 7d 3b f6 d6 33 3e d2 e1 61 be 19 c3 97 be
       0.0038609616 0.1756247 -0.220588 -0.29641035
000010 60 b0 8a 3e 76 1d 9a 3e 58 3b 72 3d 25 5e c0 3e
       0.27087688 0.30100602 0.059138626 0.37571827
000020 28 b4 7e bd ac d4 14 bc a7 4e 4f 3d 4a 53 8e bd
       -0.06218353 -0.009083908 0.050612118 -0.0694948
000030 d2 64 c4 3d a5 30 ab 3e 7e 2a a5 3e ac 85 96 3d
       0.095895424 0.3343555 0.3225898 0.07349715
000040 af bd bc be 89 ae 3f be 61 59 ae be cb 4a 65 3c
       -0.36863467 -0.18718924 -0.34052566 0.013994883
000050 78 98 89 be 70 0a 02 3e f1 7c 69 be f8 9a 17 3e
       -0.26874137 0.12699294 -0.22801568 0.1480521
000060 f6 10 98 bd 2d 4b 93 3e 1a 90 ab 3e 18 14 98 be
       -0.0742511 0.28768292 0.33508378 -0.2970283
000070 2b f0 89 be 52 f7 76 be 3c 12 93 3e 4b d3 93 be
       -0.26941046 -0.24117783 0.2872485 -0.2887214
000080 88 c6 46 3e d7 53 f0 3d 18 08 91 3d
       0.19411671 0.11734741 0.07081622

policy.0.bias f4 [5]
000000 ec ad b2 3e a4 d0 14 3d b7 6a 7e 3d b3 e3 38 3e
       0.34898317 0.036331788 0.06211349 0.1805561
000010 5e 74 de bc
       -0.027155098

hidden_comm.0.weight f4 [5, 6]
000000 78 15 82 3e d9 46 9c be a2 bc 9b 3e 60 7a 03 3e
       0.25407004 -0.30522802 0.30417353 0.12839651
000010 aa c8 9e 3e 58 56 14 bd 28 ff 5e 3e 64 a2 d7 bd
       0.3101247 -0.036215156 0.21777022 -0.105290204
000020 70 92 b2 3e d4 22 21 3e 07 a8 ba be 5c 22 58 3e
       0.34877348 0.15735942 -0.3645632 0.21106857
000030 10 32 17 be e2 d1 d0 be 9c 1c 46 be e0 d5 39 bd
       -0.14765191 -0.40785128 -0.19346851 -0.045369983
000040 16 78 a6 3e 8c 00 b5 3d 14 9d 84 3e 77 99 a4 be
       0.32513493 0.08837995 0.2590109 -0.32148334
000050 73 ba 22 be f0 e2 bc 3d 8a 4c cb 3e bc 62 74 3e
       -0.15891437 0.092229724 0.39706832 0.23865789
000060 00 0d ca 3e 7d f0 93 be 40 38 29 3c 80 dc 0d 3e
       0.39463043 -0.28894415 0.010328352 0.13853645
000070 d6 df bf be 4a b6 92 3e
       -0.3747546 0.286547

hidden_comm.0.bias f4 [5]
000000 aa 26 ad 3e f0 1b c1 3d 28 bc 06 be 94 4d ad 3e
       0.3381856 0.09429157 -0.13157713 0.3384825
000010 f4 78 98 3d
       0.07444945

comm_fn.0.weight f4 [3, 6]
000000 3e 12 6f 3e fa 2d 85 be 55 01 f0 bd 1b 7e 65 be
       0.23346803 -0.2601164 -0.11719004 -0.22411387
000010 ab 4c 93 be 71 73 3f 3d 9b 0f e7 bc 72 98 0a be
       -0.2876943 0.046740953 -0.028205683 -0.13534716
000020 ec a6 15 be 75 e2 30 3e 37 f1 c0 3e 93 b5 c4 3d
       -0.14614457 0.17273887 0.37684032 0.09604945
000030 ee 05 8c 3e 23 6d 91 be a1 81 3b 3b 9a 88 9a be
       0.27348274 -0.28403577 0.00286112 -0.30182344
000040 90 87 c4 3e 4f 50 b2 3e
       0.38384676 0.34826896

comm_fn.0.bias f4 [3]
000000 36 6e 84 3e 13 1e af be 54 d3 a4 3d
       0.25865334 -0.34202632 0.0804812
